sac_checkpoint.pth (torch, 723426 bytes, 39 tensors)

action_bound f4 [7]
1.0 1.0 1.0 3.1415927 3.1415927 3.1415927 1.0
00000000: 0000 803f 0000 803f 0000 803f db0f 4940
00000010: db0f 4940 db0f 4940 0000 803f

fc1.weight f4 [128, 9]
0.007347583 -0.14423835 0.31582543 0.20946307 0.1311988 -0.081172094 -0.16519046 -0.055662446
-0.017361054 -0.07164761 0.02132642 0.093954384 -0.008184438 -0.15185201 0.0021069092 -0.0741939
0.52963763 -0.09720363 -0.053377938 0.54948545 0.20145299 0.05311601 -0.20383555 0.0209745
-2.38703 -0.39506567 0.24637564 0.16724923 0.18094896 -0.58285606 -0.11936466 0.06297369
-0.022919526 0.030731054 -0.3964642 0.5412633 0.048718125 0.3401767 -0.24052285 -0.07831048
0.08584303 0.057949554 -0.11576348 0.3175457 -0.0710904 -0.16535908 0.12635754 0.11230966
0.0026012124 -0.015384911 0.017567063 0.112047344 -1.2106967 0.27053374 0.26862705 0.49952677
0.2785312 -0.03274388 0.3950173 -0.0561571 -0.35992453 -0.9223899 0.52814186 -0.20396957
-0.07579727 -0.61485976 -0.14824566 -0.0078933425 -0.06797851 0.12395056 0.5421681 -0.20232745
0.42902744 -0.40326345 -0.24950969 0.03324889 0.052898195 0.0034208815 -0.59138095 0.802271
-0.51139915 -0.16951655 0.29741827 0.04030506 0.043392077 -0.14281149 0.03400936 -0.06054808
-1.053473 0.83775514 -0.16902246 -0.1926343 -0.0019619495 0.104361854 0.1039309 -0.011367514
0.2507692 -0.5896831 -0.4653278 -0.4892896 -0.15190846 0.30569845 -0.03736218 -0.020670453
0.025233807 0.20935902 -0.87606025 -0.3487671 -0.4116665 -0.1975056 0.588955 -0.29662552
0.33148882 -0.067128606 0.15322393 -0.6842082 0.44111025 -0.24907278 -0.033281293 -0.11040447
0.021426931 0.01936437 0.023911692 0.19490695 -0.75498784 -0.4964638 0.060985927 -0.25027975
0.32471025 -0.012448643 0.023788866 -0.0023286997 -0.2718542 1.0550386 0.5994981 0.12286706
-0.30222887 -0.35711724 0.015019327 -0.0817075 0.06134826 -0.31287286 1.3558551 -0.061907493
-0.055720225 0.13428462 0.44475093 0.009339761 0.009634928 0.029643983 -0.102296986 -0.37756738
0.18164387 -0.06324192 0.35391867 -0.41127694 0.039291207 -0.14958431 0.103484176 -0.450514
1.1123008 0.31797642 -0.13711227 -0.32503593 0.31828827 -0.047839563 -0.01662122 0.040389996
0.007880907 -0.82082266 0.10132459 -0.069640875 0.12158356 -0.01909617 -0.01407892 -0.05422462
-0.0027451834 0.2537231 1.1405486 -1.0144119 -0.069020815 -0.042384475 0.19983755 -0.033819567
-0.05933633 0.009152493 -0.04161683 -0.48095414 0.27517465 0.12607151 0.112033695 -0.51078916
0.041196454 0.19264497 0.11836948 0.27532327 -0.23677632 0.1783195 -0.069497235 0.2745438
-0.6075683 0.0015812323 0.19999203 0.06324731 -0.07865453 -0.6261569 -0.8114083 -0.338643
-0.25866705 0.10474327 -0.026030255 0.113302186 -0.12052384 0.13963822 -0.9298081 1.0060326
-0.023988442 -0.21516049 0.22162879 0.01763193 -0.004163026 0.0077003487 -0.02489096 -0.4698005
-1.006543 0.1633779 0.2467565 -0.27078682 -0.03353695 0.055775966 0.024833336 -0.38080636
0.29804593 0.121029645 0.10090493 0.0487178 -0.052503124 0.062662296 0.22231737 -0.020535685
0.029123517 -0.8736237 -0.48649853 0.07225755 0.0022702913 -0.20332448 -0.10055384 0.067107245
-0.058394477 -0.07515312 0.6203772 -0.31513998 -0.42006907 -0.32545146 -0.56337124 -0.07071769
00000000: fec3 f03b 38b3 13be dfb3 a13e 7d7d 563e
00000010: fa58 063e 8e3d a6bd b027 29be 4efe 63bd
00000020: c538 8ebc fbbb 92bd bfb4 ae3c 286b c03d
00000030: 0518 06bc 187f 1bbe 1214 0a3b f9f2 97bd
00000040: 5596 073f b212 c7bd d3a2 5abd 14ab 0c3f
00000050: b149 4e3e 2c90 593d 44ba 50be b7d2 ab3c
00000060: 19c5 18c0 0c46 cabe e549 7c3e 6243 2b3e
00000070: af4a 393e 0e36 15bf 7575 f4bd 5af8 803d
00000080: bbc1 bbbc b1bf fb3c 5bfd cabe 3b90 0a3f
00000090: a88c 473d a42b ae3e 9f4b 76be 3f61 a0bd
000000a0: 78ce af3d 835c 6d3d 6715 edbd 5a95 a23e
000000b0: d897 91bd e453 29be df63 013e 9b02 e63d
000000c0: 1a79 2a3b fe10 7cbc cde8 8f3c 1479 e53d
000000d0: 1cf8 9abf 6683 8a3e 7c89 893e f9c1 ff3e
000000e0: a49b 8e3e 721e 06bd b53f ca3e fd04 66bd
000000f0: 0748 b8be bf21 6cbf 4e34 073f 66dd 50be
00000100: 993b 9bbd 7367 1dbf b6cd 17be 1453 01bc
00000110: 5138 8bbd cbd9 fd3d 87cb 0a3f ed2e 4fbe
00000120: 7ca9 db3e 8c78 cebe 787f 7fbe fd2f 083d
00000130: c7ab 583d de30 603b be64 17bf a261 4d3f
00000140: 0eeb 02bf bf95 2dbe 3547 983e eb16 253d
00000150: e4bb 313d 2d3d 12be 664d 0b3d 4301 78bd
00000160: 34d8 86bf 1f77 563f 3914 2dbe ed41 45be
00000170: 0d94 00bb abbb d53d b9d9 d43d cf3e 3abc
00000180: d264 803e 79f5 16bf 723f eebe 2b84 fabe
00000190: e48d 1bbe 8284 9c3e 1609 19bd 1555 a9bc
000001a0: 21b7 ce3c 3662 563e 7c45 60bf 9a91 b2be
000001b0: f4c5 d2be e83e 4abe c1c5 163f 4ddf 97be
000001c0: e7b8 a93e b97a 89bd bce6 1c3e 4528 2fbf
000001d0: 34d9 e13e ef0c 7fbe f751 08bd bd1b e2bd
000001e0: 8887 af3c 07a2 9e3c 74e2 c33c b095 473e
000001f0: e246 41bf 8130 febe 61cc 793d ab24 80be
00000200: 6c40 a63e 65f5 4bbc dee0 c23c 199d 18bb
00000210: 7930 8bbe 810b 873f b578 193f baa1 fb3d
00000220: bebd 9abe 12d8 b6be a013 763c 4356 a7bd
00000230: 5048 7b3d df30 a0be a98c ad3f b692 7dbd
00000240: e43a 64bd e881 093e 65b6 e33e cc05 193c
00000250: d1db 1d3c f0d7 f23c 1581 d1bd 8350 c1be
00000260: da00 3a3e fb84 81bd d434 b53e e492 d2be
00000270: d1ef 203d a12c 19be 83ef d33d c5a9 e6be
00000280: df5f 8e3f cecd a23e 2967 0cbe 1c6b a6be
00000290: aef6 a23e 6bf3 43bd 3a29 88bc fb6f 253d
000002a0: eb1e 013c 6f21 52bf 4483 cf3d e09f 8ebd
000002b0: cd00 f93d 926f 9cbc 45ab 66bc a31a 5ebd
000002c0: 89e8 33bb ffe7 813e 7ffd 913f 40d8 81bf
000002d0: c95a 8dbd 589b 2dbd 37a2 4c3e 6386 0abd
000002e0: a70a 73bd 57f4 153c 6976 2abd 9f3f f6be
000002f0: b1e3 8c3e e418 013e ec71 e53d 14c3 02bf
00000300: 9dbd 283d b944 453e b36b f23d 2cf7 8c3e
00000310: 7e75 72be 6399 363e 9154 8ebd 0191 8c3e
00000320: 9989 1bbf 5a41 cf3a b6ca 4c3e ce87 813d
00000330: a015 a1bd d24b 20bf 74b8 4fbf 9e62 adbe
00000340: 0270 84be a483 d63d 673d d5bc fa0a e83d
00000350: 34d5 f6bd 52fd 0e3e e707 6ebf adc5 803f
00000360: 6983 c4bc 0853 5cbe a8f2 623e d670 903c
00000370: fe69 88bb 3553 fc3b 20e8 cbbc b189 f0be
00000380: 67d6 80bf 894c 273e bcad 7c3e 92a4 8abe
00000390: 0a5e 09bd 5775 643d 486f cb3c 0df9 c2be
000003a0: 7a99 983e 64de f73d 3ea7 ce3d 518c 473d
000003b0: 840d 57bd 1755 803d 2aa7 633e 743a a8bc
000003c0: 7194 ee3c cea5 5fbf 5616 f9be c4fb 933d
000003d0: 2bc9 143b 4b34 50be 2cef cdbd 866f 893d
000003e0: 0c2f 6fbd e1e9 99bd 0ad1 1e3f 075a a1be
000003f0: 4b13 d7be 93a1 a6be 1939 10bf 70d4 90bd

fc1.bias f4 [128]
0.021963235 -0.35315126 -0.35689762 0.21091872 -0.25647187 0.5534921 -0.07648758 -0.05334403
-0.0920213 0.39648786 0.60874206 0.762578 -0.11869785 0.8877931 -0.72438794 0.039216522
-0.1319339 -0.5201832 0.46853608 -0.27872953 0.09679597 0.25670332 0.8886671 0.35281652
0.5614407 -0.26781693 0.66345716 -0.23712242 -0.29669076 0.20310982 -0.74647766 -0.10214541
0.3736366 -0.072040595 -0.57295424 -0.8373117 -0.15154687 0.27789456 -0.45407963 0.46365574
1.1278467 -0.7770491 -0.60956794 -0.44397005 -0.2650399 -0.54992074 0.24681532 -0.4972084
-0.23498487 -0.16737562 -0.36934227 0.9941211 -0.30529508 0.18336044 0.34679246 -0.1178762
0.73025334 0.42740571 0.6285924 -0.23241551 0.033965167 0.31006762 0.042908385 0.13410448
-0.17368473 0.39313185 0.08093991 -0.29155788 -0.8263151 0.51319087 0.5738933 -0.5533161
-0.11092571 -0.600547 0.10646655 0.7858456 -0.30639035 -0.43163794 0.14162411 0.34876305
0.6079202 0.4870125 0.46690074 -0.452647 0.34965873 0.61563766 0.325568 0.6837855
-0.657241 -0.30837107 -0.44239488 -0.4257422 0.14921896 0.09218378 -0.7244671 -0.41046566
-0.79304695 -0.17291063 -0.06536267 -0.66392446 -0.20542826 0.034235545 -0.2647558 0.646358
-0.040662706 0.08135783 0.5947458 -0.89689714 -0.42951334 -0.02155266 -0.53629506 -0.4375636
0.6103676 -0.09658412 0.15282063 0.08219897 0.12296636 -0.4550049 -0.38891196 0.5979295
-0.38671967 -0.015069574 -0.75126207 0.52654517 0.610452 0.37727723 0.29301506 0.31619802
00000000: 3eec b33c 3ed0 b4be 49bb b6be 14fb 573e
00000010: 4850 83be a9b1 0d3f 85a5 9cbd 457f 5abd
00000020: aa75 bcbd 7500 cb3e 85d6 1b3f 5038 433f
00000030: dc17 f3bd 6946 633f 7d71 39bf 81a1 203d
00000040: ae19 07be ba2a 05bf f6e3 ef3e a3b5 8ebe
00000050: f73c c63d 9e6e 833e b07f 633f 5ea4 b43e
00000060: 94ba 0f3f 4d1f 89be 54d8 293f 38d0 72be
00000070: dae7 97be 05fc 4f3e 2919 3fbf 9d31 d1bd
00000080: 4c4d bf3e 058a 93bd 21ad 12bf 0f5a 56bf
00000090: 1a2f 1bbe 3248 8e3e 207d e8be 4964 ed3e
000000a0: 485d 903f b1ec 46bf a50c 1cbf 0b50 e3be
000000b0: 4fb3 87be 9bc7 0cbf 28bd 7c3e 1992 febe
000000c0: e09f 70be 8464 2bbe 6e1a bdbe b87e 7e3f
000000d0: a34f 9cbe d7c2 3b3e c88e b13e 1469 f1bd
000000e0: e2f1 3a3f ecd4 da3e 6eeb 203f 55fe 6dbe
000000f0: 0f1f 0b3d 2fc1 9e3e b4c0 2f3d af52 093e
00000100: 69da 31be 9448 c93e d3c3 a53d 1347 95be
00000110: 6389 53bf 7a60 033f acea 123f 20a6 0dbf
00000120: 052d e3bd 73bd 19bf 220b da3d 2d2d 493f
00000130: 32df 9cbe a6ff dcbe e905 113e 1291 b23e
00000140: a9a0 1b3f b459 f93e 9d0d ef3e 59c1 e7be
00000150: 7806 b33e 6e9a 1d3f d9b0 a63e 910c 2f3f
00000160: f240 28bf d0e2 9dbe 9581 e2be e2fa d9be
00000170: dbcc 183e daca bc3d ad76 39bf 8e28 d2be
00000180: 2005 4bbf 7c0f 31be dddc 85bd f4f6 29bf
00000190: c95b 52be 923a 0c3d 128e 87be b877 253f
000001a0: f08d 26bd ef9e a63d 4341 183f 0d9b 65bf
000001b0: 2ce9 dbbe 348f b0bc a24a 09bf 5608 e0be
000001c0: 0d41 1c3f e5cd c5bd 037d 1c3e ef57 a83d
000001d0: c9d5 fb3d 67f6 e8be 781f c7be e811 193f
000001e0: 1f00 c6be 60e6 76bc b652 40bf aacb 063f
000001f0: 9546 1c3f 7b2a c13e 1206 963e b5e4 a13e

fc2.weight f4 [128, 128]
0.14550844 0.334407 0.19142357 0.12590796 0.6301227 -0.46347076 0.012278551 -0.021891113
-0.55544263 0.16842224 -0.081892334 -0.44269896 -0.26113296 -0.15774223 -0.22675344 -0.28410897
0.07096948 0.15495709 -0.25657845 -0.20423003 0.12109098 -0.023414895 0.044265263 -0.20789027
-0.33258742 0.29859194 -0.45899677 0.24393697 -0.07595998 0.014853473 -0.12291815 -0.32830146
-0.4952765 -0.25803533 0.11861668 0.016263613 0.048070036 0.22420458 -0.07453666 -0.2170429
-0.07391759 0.47718474 -0.54566324 -0.07631341 0.38043636 -0.34545267 -0.4978017 -0.09048433
0.20155878 -0.3090389 -0.64820415 -0.6362757 -0.13075654 -0.36912054 -0.42785177 0.3739915
-0.31888872 -0.17659876 -0.20602536 -0.04100478 -0.19279489 0.01682375 -0.17981283 -0.4533377
0.29343286 -0.28180492 -0.075399846 -0.3016061 0.04384832 -0.19723885 -0.29077896 -0.24750021
-0.0031350967 -0.15378097 -0.2501461 -0.71593165 -0.09181257 0.17748056 -0.090617806 -0.24575186
-0.32545015 0.25333288 -0.3197635 -0.052091002 -0.2729432 -0.34002575 -0.007165641 -0.40347582
-0.6836968 -0.6672536 -0.12803921 -0.42023998 -0.14002638 -0.28506437 0.011506354 -0.081498444
0.18086852 0.41841704 -0.014672045 -0.06621035 -0.17508335 0.3506821 0.19852598 -0.59110963
0.17538634 -0.13583323 -0.23009592 -0.030405989 -0.37154493 -0.16240543 0.2922878 0.23706688
-0.3092513 -0.37765992 -0.03013363 -0.20265368 -0.31607172 -0.029965494 -0.18725812 -0.34641126
-0.2630828 0.30709395 -0.31499764 -0.084467255 -0.35556078 -0.34147537 0.06276231 -0.35858032
-0.01938397 0.048392106 -0.31347457 -0.2541059 -0.2667326 -0.2362544 -0.27077475 -0.07258521
-0.25099182 -0.29903457 -0.39927986 0.02197998 0.32792518 -0.28068545 0.17539367 -0.11429297
0.047411934 -0.13075925 -0.15257107 -0.0070608533 0.4750138 -0.66741866 -0.68690807 -0.30665097
-0.1865499 -0.31705877 -0.5668693 0.003879946 -0.018754046 -0.01687465 0.2536295 -0.06884909
-0.19762841 -0.24266882 0.00069473824 0.0879149 -0.19902825 -0.09794628 0.033310827 -0.4781771
-0.23547374 0.14848456 -0.2376169 -0.04154955 0.16205955 0.009348986 -0.2820641 0.015928388
0.03474101 0.08171429 0.0885077 -0.39915475 -0.037168544 0.320434 -0.20260417 -0.31659064
-0.5075854 -0.09281676 -0.37110323 0.027420241 -0.08827332 -0.23036529 0.24667154 0.026506523
-0.22632769 0.19038975 0.05967845 -0.06758258 -0.0931518 -0.4620865 -0.037781794 -0.24017085
0.2527433 0.08526867 0.11976945 -0.49639913 -0.105650514 0.16200377 -0.058703315 -0.5224905
-0.22744527 -0.46690303 -0.5740976 0.14646581 -0.1541033 -0.815074 -0.46310753 -0.43867052
0.114028916 -0.000535011 -0.10055355 0.15943813 0.37070155 -0.5065648 0.36705604 0.017994426
-0.12331972 0.043045003 0.20527838 0.20831485 -0.15956159 -0.3955964 -0.048046518 -0.07249417
0.38068658 -0.101317264 -0.25797513 0.11556239 0.13080956 0.3506267 0.41098994 0.11407953
0.1512778 -0.0898764 -0.07947896 -0.11806595 0.0844078 -0.3285253 -0.33833942 -0.3871649
0.05794279 -0.6837978 -0.085144326 -0.6449127 -0.49253762 0.06613869 -0.123478085 -0.22336419
00000000: 2a00 153e 6537 ab3e 8a04 443e 04ee 003e
00000010: b94f 213f 0a4c edbe fa2b 493c fe54 b3bc
00000020: 7d31 0ebf e176 2c3e 2bb7 a7bd 70a9 e2be
00000030: 38b3 85be 2e87 21be 0e32 68be bb76 91be
00000040: 7258 913d 12ad 1e3e 405e 83be ad21 51be
00000050: 8cfe f73d 98d0 bfbc 7e4f 353d 30e1 54be
00000060: e648 aabe 0be1 983e a001 ebbe 9dca 793e
00000070: e890 9bbd fb5b 733c 83bc fbbd 2117 a8be
00000080: e294 fdbe 351d 84be 4ded f23d 453b 853c
00000090: 16e5 443d e395 653e ada6 98bd 7e40 5ebe
000000a0: 1b62 97bd 8f51 f43e 96b0 0bbf 354a 9cbd
000000b0: 8ec8 c23e 2cdf b0be dddf febe d94f b9bd
000000c0: 6d65 4e3e 593a 9ebe b5f0 25bf f7e2 22bf
000000d0: 0be5 05be 5efd bcbe 630f dbbe d07b bf3e
000000e0: 6245 a3be 4ed6 34be 50f8 52be a1f4 27bd
000000f0: 066c 45be f6d1 893c db20 38be e11b e8be
00000100: d53c 963e bc48 90be 3c6b 9abd 1d6c 9abe
00000110: 4c9a 333d fbf8 49be fbe0 94be b270 7dbe
00000120: 3276 4dbb c278 1dbe 2613 80be 4c47 37bf
00000130: 3b08 bcbd 77bd 353e d495 b9bd 60a6 7bbe
00000140: 67a1 a6be d9b4 813e 0bb8 a3be 605d 55bd
00000150: 36bf 8bbe db17 aebe c1cd eabb 6294 cebe
00000160: c106 2fbf 22d1 2abf b61c 03be b229 d7be
00000170: 1363 0fbe f5f3 91be 2685 3c3c a8e8 a6bd
00000180: 9935 393e c23a d63e 0463 70bc 4b99 87bd
00000190: 0d49 33be 9b8c b33e 654a 4b3e f652 17bf
000001a0: 7a98 333e de17 0bbe 449e 6bbe fb15 f9bc
000001b0: 233b bebe 9c4d 26be bfa6 953e a9c1 723e
000001c0: 3056 9ebe a45c c1be cdda f6bc 7284 4fbe
000001d0: 27d4 a1be 327a f5bc 98c0 3fbe d15c b1be
000001e0: cab2 86be 6b3b 9d3e 5f47 a1be 2bfd acbd
000001f0: 100c b6be dcd5 aebe 8789 803d d797 b7be
00000200: 22cb 9ebc cd36 463d bd7f a0be 2b1a 82be
00000210: 2d91 88be acec 71be fda2 8abe 8ea7 94bd
00000220: 0082 80be 0f1b 99be 696e ccbe 5c0f b43c
00000230: cfe5 a73e 01b6 8fbe 669a 333e 6f12 eabd
00000240: 0433 423d c1e5 05be 973b 1cbe bb5e e7bb
00000250: 0235 f33e f3db 2abf 35d9 2fbf 5b01 9dbe
00000260: f006 3fbe 8755 a2be 591e 11bf b146 7e3b
00000270: 16a2 99bc b53c 8abc badb 813e c000 8dbd
00000280: 1a5f 4abe 2d7e 78be 181f 363a ba0c b43d
00000290: 10ce 4bbe 0f98 c8bd ef70 083d a1d3 f4be
000002a0: 0720 71be 560c 183e d851 73be dc2f 2abd
000002b0: f0f2 253e 7d2c 193c b56a 90be 407c 823c
000002c0: 974c 0e3d d259 a73d 8643 b53d 035e ccbe
000002d0: 0b3e 18bd ed0f a43e 7877 4fbe 2b18 a2be
000002e0: 1ef1 01bf b716 bebd 3e01 bebe 6aa0 e03c
000002f0: a4c8 b4bd e1e4 6bbe 7797 7c3e 3524 d93c
00000300: 72c2 67be 88f5 423e 6471 743d bc68 8abd
00000310: 5fc6 bebd 9a96 ecbe 15c1 1abd 59ef 75be
00000320: 9267 813e 57a1 ae3d af49 f53d 0728 febe
00000330: 4c5f d8bd 51e4 253e e372 70bd f0c1 05bf
00000340: 6ae7 68be ea0d efbe 0ff8 12bf 22fb 153e
00000350: 41cd 1dbe b1a8 50bf 6e1c edbe 6c99 e0be
00000360: fe87 e93d fb3f 0cba 05ef cdbd c043 233e
00000370: 98cc bd3e 3bae 01bf c5ee bb3e 0c69 933c
00000380: 0d8f fcbd f54f 303d 7f34 523e 7d50 553e
00000390: 1d64 23be 9d8b cabe 6dcc 44bd d377 94bd
000003a0: 5ae9 c23e 6d7f cfbd 5115 84be f9ab ec3d
000003b0: f1f2 053e 5885 b33e 466d d23e 87a2 e93d
000003c0: 91e8 1a3e 1e11 b8bd ddc5 a2bd 90cc f1bd
000003d0: ffdd ac3d 7834 a8be d33a adbe 7a3a c6be
000003e0: 6b55 6d3d 5f0d 2fbf 2660 aebd 0019 25bf
000003f0: e42d fcbe b973 873d 14e2 fcbd 95b9 64be

fc2.bias f4 [128]
-0.42274082 0.07797618 0.060170397 0.21569663 0.6781265 -1.0288415 0.24722536 -0.38323194
-0.2918462 0.32423434 0.6684468 -0.21542591 -0.5253912 -1.0690523 0.11274948 0.049497873
0.36756247 1.4958073 0.17391619 -0.4718158 -0.093833834 -0.14016785 -0.17460887 -0.9857822
0.14073177 -0.2687713 -0.324625 -0.7923508 0.28374782 0.9243367 0.9084223 -0.5333002
-0.13287108 -0.15045904 0.15298049 0.45748618 -0.16767952 0.007978298 -0.94412124 0.4197201
0.4115104 0.2759513 0.24088153 -0.25910714 -0.19979192 -0.5125871 -0.2778658 -0.040818144
-0.10713685 -0.0448175 -0.12473043 0.16869092 -0.2840081 0.0724824 0.5011344 0.12098112
-0.2729092 0.12446743 -0.2611523 -0.13843895 -0.2111502 0.62712485 -0.1259834 -0.006975976
-0.47839934 0.013773176 -0.18601267 -0.28283742 -0.10179051 0.35627487 -0.21383111 -0.08804882
0.1090841 0.61798066 -0.24793667 -0.9130073 0.13162324 -0.20970567 -0.29753938 -0.30088168
-0.09447687 -0.52937746 -0.42515674 -0.3879813 -0.20521633 -0.13152508 -0.40787652 -0.23185086
-0.60952365 -0.3625538 0.12523669 1.474023 0.6050557 -0.23102216 -0.017235804 -0.08863286
-0.095421985 -0.5201581 -0.19895498 0.34015733 0.3522112 -0.2655481 -0.3225734 0.9214524
0.103117265 -0.6868941 0.22745669 -0.58043116 -0.10743049 -0.2774122 -0.11910352 0.145645
-0.36359438 -0.53648883 -0.19278958 -0.13172883 0.5542484 -0.30237815 0.29286095 -0.31829354
-0.51107675 -0.47950542 -0.26276514 -0.27271602 -0.34845412 0.038301323 -0.20405886 0.20652035
00000000: 7c71 d8be fab1 9f3d 3c75 763d 94df 5c3e
00000010: b399 2d3f 14b1 83bf a528 7d3e fa36 c4be
00000020: dd6c 95be 0b02 a63e 541f 2b3f 9c98 5cbe
00000030: 0a80 06bf b5d6 88bf 33e9 e63d 48be 4a3d
00000040: 2631 bc3e 9d76 bf3f 1617 323e d791 f1be
00000050: f42b c0bd 2988 0fbe abcc 32be 395c 7cbf
00000060: fd1b 103e 649c 89be 3f35 a6be 81d7 4abf
00000070: 6547 913e 54a1 6c3f 5d8e 683f 5d86 08bf
00000080: 5b0f 08be ef11 1abe eba6 1c3e a13b ea3e
00000090: 2eb4 2bbe 68b7 023c eeb1 71bf 8ee5 d63e
000000a0: 7eb1 d23e 7d49 8d3e a6a9 763e b1a9 84be
000000b0: 4196 4cbe e838 03bf 6d44 8ebe ed30 27bd
000000c0: 916a dbbd 8e92 37bd ab72 ffbd 50bd 2c3e
000000d0: 8269 91be a771 943d 584a 003f f3c4 f73d
000000e0: c1ba 8bbe c8e8 fe3d c1b5 85be f1c2 0dbe
000000f0: c237 58be 418b 203f cb01 01be ba96 e4bb
00000100: c2f0 f4be e3a8 613c 1b7a 3ebe 11d0 90be
00000110: 8b77 d0bd a969 b63e 8bf6 5abe f152 b4bd
00000120: 7c67 df3d fb33 1e3f 1ce3 7dbe d9ba 69bf
00000130: 3ec8 063e 15bd 56be 1557 98be 2a0d 9abe
00000140: 177d c1bd 4885 07bf 25ae d9be 7ca5 c6be
00000150: 3b24 52be 83ae 06be 31d5 d0be 506a 6dbe
00000160: be09 1cbf a7a0 b9be 0c3e 003e c9ac bc3f
00000170: eee4 1a3f 1391 6cbe 1a32 8dbc 2585 b5bd
00000180: 9a6c c3bd 1529 05bf dbba 4bbe 1a29 ae3e
00000190: 0755 b43e ecf5 87be 5728 a5be 4ee4 6b3f
000001a0: 252f d33d 4bd8 2fbf 68ea 683e 2397 14bf
000001b0: 8404 dcbd f908 8ebe 8cec f3bd f623 153e
000001c0: 0b29 babe 5557 09bf a26a 45be ece3 06be
000001d0: 39e3 0d3f 4fd1 9abe dff1 953e 5ff7 a2be
000001e0: edd5 02bf bc81 f5be 2789 86be 6fa1 8bbe
000001f0: 9468 b2be d9e1 1c3d cef4 50be 127a 533e

fc3.weight f4 [128, 128]
0.069493786 -0.31857088 -0.19208854 -0.5502807 -0.9136021 0.14161499 -0.37700054 -0.34045163
-0.16932462 -0.45560095 -0.12282725 0.050600946 0.5093909 0.25125116 -0.019242676 -0.08412893
-0.23999417 -1.6683624 -0.2612288 -0.28756866 0.182614 -0.37923044 0.5447113 0.017525518
-0.31332865 0.13830924 0.051105514 -0.19490564 -0.3052057 -1.124661 -0.389568 -0.35006967
-0.31310722 -0.3063903 -0.5144545 -0.096596695 -0.35025063 -0.28693777 0.29741883 -0.23456669
0.039967503 -0.2531869 -0.36115938 0.13288106 0.12230506 -0.5263867 -0.31151626 -0.3294583
-0.2295297 0.5229254 0.025176823 0.22686237 0.023446675 -0.4090433 -0.38674688 -0.85560894
-0.12335887 -0.23138139 -0.26288125 -0.15049809 0.17279775 0.1050665 0.103818014 -0.06046359
-0.45129356 -0.265946 -0.32548615 -0.54288006 -0.043592487 -0.23235445 -0.2835411 -0.034108847
0.10453902 -0.49064654 0.08591183 0.5712372 -0.16300538 -0.085226595 -0.1253311 0.35093737
0.49768177 -0.050579682 0.0030899493 -0.005408353 -0.25520945 0.14748874 -0.21848388 -0.28336072
-0.013008697 0.11235312 -0.8043702 -1.1844821 -1.0869652 -0.3506616 -0.021640982 -0.102787755
-0.089671254 -0.52192646 0.00041977764 -0.119970664 -0.29583904 -0.0052313674 -0.27153835 -0.924119
-0.25136966 -0.22487545 -0.022795763 0.49365008 -0.012679934 0.34963477 -0.4512139 0.05115698
-0.35933146 -0.19610786 -0.22817218 0.014119272 0.095223434 -0.30595976 0.2907508 -0.46596617
-0.16097118 0.17022696 -0.004783788 -0.349 -0.1855816 -0.70015734 -0.010883066 0.18693738
0.17224552 -0.33087596 -0.14992076 0.30535442 -0.38344544 0.22922282 0.1931373 -0.26994747
-0.46813086 -0.1059257 -0.3829909 -0.1387528 -0.1282575 0.47122696 -0.15549316 -0.01930558
-0.30409405 -0.0020603347 -0.084967166 -0.30211958 -0.37200078 -0.074566044 -0.080318645 0.39790994
-0.33843765 0.2495156 -0.10702402 0.39877704 -0.31163645 0.083746456 -0.53506416 0.6888014
0.002303115 0.1204848 -0.40125898 0.1578378 0.33452615 0.42160597 0.20403036 -0.11459477
-0.47274494 -0.7884387 -0.32888973 -0.060903277 -0.3222385 0.06418346 -0.058140807 -0.2013883
-0.063574076 -0.8124795 0.40032342 -0.00066635443 0.08863535 0.31562272 -0.2794042 -0.38274708
-0.2982702 -0.3491985 -0.13653731 -0.2032319 0.394633 -0.21233729 0.13954875 -0.048597768
0.1799593 -0.43113247 0.18153982 0.042724133 0.05242275 -0.5778912 0.0731542 0.0069298414
-0.6005593 -0.51403874 -0.094522566 0.08774099 -0.22755915 0.26121116 0.026607336 -0.044162877
0.12857756 0.30399 -0.057758864 0.35306153 -0.50936407 -0.4428795 0.13706751 0.015556417
0.17873842 0.17355837 -0.24133341 -0.10010815 -0.21702144 0.09564443 -0.26690784 -1.2359259
0.06443062 0.40828168 0.34667602 -0.28719983 -0.05549083 -0.4273283 0.03508413 -0.13214143
-0.10394468 0.2864377 0.085425004 -0.095163174 -0.2908643 0.020894792 0.22417979 -0.049982853
-0.24321206 0.22063145 -0.15578611 -0.7493338 -0.17705029 0.08153836 0.27443108 -0.15950468
0.07083777 0.3947631 -0.52548754 0.35038576 0.4026535 -0.114125334 0.17757916 -0.52867705
00000000: c252 8e3d b91b a3be dcb2 44be 32df 0cbf
00000010: d4e1 69bf 8503 113e 3706 c1be ad4f aebe
00000020: 6f63 2dbe 8744 e9be da8c fbbd f042 4f3d
00000030: 7167 023f fea3 803e d1a2 9dbc ca4b acbd
00000040: 08c1 75be e68c d5bf c8bf 85be 333c 93be
00000050: 2aff 3a3e 7e2a c2be 3372 0b3f ad91 8f3c
00000060: 9d6c a0be f0a0 0d3e 0454 513d 5895 47be
00000070: ec43 9cbe e4f4 8fbf 7575 c7be 553c b3be
00000080: 974f a0be 30df 9cbe 4ab3 03bf 7dd4 c5bd
00000090: 0d54 b3be 82e9 92be 4847 983e 4032 70be
000000a0: f7b4 233d b7a1 81be e2e9 b8be f911 083e
000000b0: 137b fa3d 47c1 06bf 0f7f 9fbe c2ae a8be
000000c0: d509 6bbe 70de 053f a03f ce3c 9c4e 683e
000000d0: 3e13 c03c 206e d1be b003 c6be 3009 5bbf
000000e0: 93a3 fcbd 3eef 6cbe 5f98 86be 2c1c 1abe
000000f0: e5f1 303e 1b2d d73d 8a9e d43d aba8 77bd
00000100: f30f e7be 132a 88be 1fa6 a6be 30fa 0abf
00000110: 098e 32bd 53ee 6dbe 4d2c 91be b8b5 0bbd
00000120: 8e18 d63d 0636 fbbe 8bf2 af3d 9a3c 123f
00000130: e2ea 26be 488b aebd cc56 00be 10ae b33e
00000140: 25d0 fe3e a42c 4fbd bf80 4a3b 8e38 b1bb
00000150: d0aa 82be 4a07 173e 3dba 5fbe a814 91be
00000160: 6e22 55bc 6519 e63d 35eb 4dbf 1c9d 97bf
00000170: ad21 8bbf eb89 b3be 6e48 b1bc 6382 d2bd
00000180: 90a5 b7bd f99c 05bf 9a15 dc39 2eb3 f5bd
00000190: 3778 97be e46b abbb 1307 8bbe 1093 6cbf
000001a0: 86b3 80be c045 66be 2ebe babc b4bf fc3e
000001b0: 7fbf 4fbc 5403 b33e 8205 e7be fb89 513d
000001c0: 4bfa b7be 80d0 48be f8a5 69be 8554 673c
000001d0: 8104 c33d c2a6 9cbe 4add 943e 1e93 eebe
000001e0: a1d5 24be fa4f 2e3e 53c1 9cbb 21b0 b2be
000001f0: 1a09 3ebe 833d 33bf e34e 32bc 836c 3f3e
00000200: 2161 303e 9368 a9be d484 19be 6a57 9c3e
00000210: f652 c4be 63b9 6a3e c9c5 453e 8e36 8abe
00000220: d9ae efbe 93ef d8bd 6217 c4be 3715 0ebe
00000230: ef55 03be a944 f13e 9939 1fbe bc26 9ebc
00000240: 37b2 9bbe ae06 07bb 4403 aebd 6baf 9abe
00000250: e376 bebe 15b6 98bd 1a7e a4bd daba cb3e
00000260: b347 adbe 0481 7f3e 692f dbbd 812c cc3e
00000270: d08e 9fbe 4383 ab3d f7f9 08bf 4a55 303f
00000280: dcef 163b bcc0 f63d d171 cdbe 3ba0 213e
00000290: 0347 ab3e bddc d73e 56ed 503e aab0 eabd
000002a0: a00b f2be 1ed7 49bf 3c64 a8be b775 79bd
000002b0: 72fc a4be 9e72 833d 0e25 6ebd bc38 4ebe
000002c0: 2033 82bd a8fe 4fbf 31f7 cc3e 4aae 2eba
000002d0: 7386 b53d 4d99 a13e 110e 8fbe 6df7 c3be
000002e0: dfb6 98be 25ca b2be 70d0 0bbe 061c 50be
000002f0: 560d ca3e f26e 59be dee5 0e3e 740e 47bd
00000300: 4047 383e 65bd dcbe 93e5 393e 80ff 2e3d
00000310: 3db9 563d adf0 13bf dfd1 953d b913 e33b
00000320: 41be 19bf 0b98 03bf 0c95 c1bd 8cb1 b33d
00000330: 4405 69be 78bd 853e a1f7 d93c 22e4 34bd
00000340: d6a9 033e 94a4 9b3e 8f94 6cbd 7bc4 b43e
00000350: af65 02bf 1ac1 e2be 6d5b 0c3e 58e0 7e3c
00000360: 3407 373e 49b9 313e 1b20 77be 8005 cdbd
00000370: de3a 5ebe 3ae1 c33d 25a8 88be d232 9ebf
00000380: 33f4 833d 4c0a d13e 857f b13e db0b 93be
00000390: 5a4a 63bd c6ca dabe 60b4 0f3d 1550 07be
000003a0: f3e0 d4bd f6a7 923e 4ef3 ae3d e9e4 c2bd
000003b0: 2aec 94be 8e2b ab3c 638f 653e d2ba 4cbd
000003c0: 950c 79be 36ed 613e 6586 1fbe 57d4 3fbf
000003d0: ac4c 35be 95fd a63d 3b82 8c3e 3255 23be
000003e0: 6513 913d 641e ca3e 5a86 06bf c365 b33e
000003f0: 9928 ce3e 8bba e9bd 50d7 353e 6157 07bf

fc3.bias f4 [128]
-0.5493168 -0.49950582 0.031284884 -0.52711433 -0.59907544 -0.5633015 -0.28913364 -0.6050474
-0.38591734 -0.553398 -0.3128646 -0.19997472 -0.19172192 -0.7314183 -0.5507603 -0.11006939
-0.3834155 -0.65240365 -0.65613437 -0.061519425 -0.57172835 0.16928111 -1.0424553 -0.3958013
0.0057815616 -0.44778106 -0.27716884 -0.43489456 -0.16702896 -0.25049412 -0.17117922 -0.40481976
-0.016219558 -0.08496224 -0.23193644 -0.23536885 -0.2980701 0.06654065 -0.38067672 -0.16968292
-0.9007474 -0.6920394 -0.42732912 -0.44277814 0.13634765 -0.31730804 -0.41843274 -0.45357364
-0.39731207 -0.06842576 -0.10144302 -0.055969454 -0.47760445 0.067209505 -0.39166135 -0.56123775
-0.1286403 -0.35093322 -0.2232369 -0.94336724 -0.087869525 -0.6497648 -0.26326743 -0.30408147
-0.50012493 -0.77857494 -1.0642225 -0.13877222 -0.110252745 -0.7890832 0.030755896 0.14556995
-0.23008785 -0.63286597 0.056617234 -0.29575872 -0.10215707 -0.09487788 -0.72848994 -0.35687354
0.16958384 -0.41169822 -0.36938643 -0.66350085 -0.02775276 0.14510739 -0.5031441 0.14991035
0.0101756165 -0.45943055 -0.2336416 -0.7912493 0.14217599 -0.31866178 -0.5427165 -0.4499353
-0.9569415 -0.18519789 -0.10289572 -0.48506466 -0.6067737 -0.18318842 -0.3103066 -0.32616523
-0.3240439 -0.5783062 -0.18888141 -0.42497247 -0.08028806 -0.31062338 -0.21569155 -0.072348386
-0.0506629 -0.38912722 -0.014647996 0.1277931 -0.16369377 -0.025237441 -0.29984298 -0.6069553
-0.26631042 -0.42818537 -0.30799025 0.14338906 -0.13329777 -0.48388433 -0.4105226 -0.23403385
00000000: 07a0 0cbf 3abf ffbe 9424 003d f7f0 06bf
00000010: 025d 19bf 8734 10bf 5309 94be 63e4 1abf
00000020: f596 c5be 7eab 0dbf ca2f a0be 2cc6 4cbe
00000030: c052 44be 3b3e 3bbf a1fe 0cbf 0f6c e1bd
00000040: 094f c4be ed03 27bf 6cf8 27bf cbfb 7bbd
00000050: ca5c 12bf 0758 2d3e 2d6f 85bf 78a6 cabe
00000060: 4173 bd3b 8f43 e5be 13e9 8dbe 80aa debe
00000070: a409 2bbe c440 80be 9b49 2fbe 8944 cfbe
00000080: e1de 84bc af00 aebd bf80 6dbe 8804 71be
00000090: a59c 98be 7746 883d 0fe8 c2be 5cc1 2dbe
000000a0: 6297 66bf 7e29 31bf e2ca dabe d1b3 e2be
000000b0: b89e 0b3e 3376 a2be d13c d6be ce3a e8be
000000c0: 7d6c cbbe ce22 8cbd 5cc1 cfbd 3a40 65bd
000000d0: 9288 f4be 23a5 893d d687 c8be 47ad 0fbf
000000e0: 48ba 03be 85ad b3be 3798 64be 8480 71bf
000000f0: f0f4 b3bd fc56 26bf fdca 86be 91b0 9bbe
00000100: 3008 00bf b050 47bf 7138 88bf 4e1a 0ebe
00000110: 31cc e1bd 5b01 4abf caf3 fb3c 4a10 153e
00000120: 269c 6bbe 8103 22bf 79e7 673d b06d 97be
00000130: ba37 d1bd 554f c2bd 517e 3abf 21b8 b6be
00000140: 63a7 2d3e 1cca d2be 3820 bdbe 31db 29bf
00000150: c259 e3bc 0897 143e 0dce 00bf 1982 193e
00000160: a1b7 263c 7b3a ebbe be3f 6fbe 508f 4abf
00000170: 9596 113e a327 a3be 78ef 0abf eb5d e6be
00000180: 1efa 74bf 84a4 3dbe feba d2bd 655a f8be
00000190: 8555 1bbf bf95 3bbe 82e0 9ebe 21ff a6be
000001a0: 15e9 a5be e00b 14bf 216a 41be fe95 d9be
000001b0: 116e a4bd 070a 9fbe 3fde 5cbe 642b 94bd
000001c0: e783 4fbd af3b c7be 26fe 6fbc 32dc 023e
000001d0: 579f 27be c0be cebc 0585 99be 6c61 1bbf
000001e0: d759 88be 1d3b dbbe e6b0 9dbe 95d4 123e
000001f0: 367f 08be b0bf f7be 0530 d2be 92a6 6fbe

fc_mu.weight f4 [7, 128]
0.04284919 0.18842329 -0.0070937234 0.16701448 -0.065250374 0.016239554 -0.081314564 0.23880877
-0.25166216 -0.10898615 0.007232775 0.09329074 -0.021610709 0.063162975 0.116358966 0.17561221
0.030067712 0.13109848 0.030503664 -0.123130925 -0.016320847 -0.05033413 0.17285815 -0.18146607
0.07951423 0.09748601 -0.13082777 0.05791764 -0.18421386 0.057949793 0.057557505 -0.012801744
0.0601737 -0.2221617 0.025940688 -0.18406498 -0.18046743 0.095489144 0.088368274 0.0581722
0.047432788 -0.121865585 0.004341329 -0.06760447 -0.081443354 0.013711228 -0.056259263 0.13061553
-0.20863208 0.05699431 0.030254796 0.0025385884 0.17061827 0.00956329 -0.01057165 -0.034892794
0.08448999 -0.23957 0.029429976 0.06117161 -0.053381443 -0.048953008 -0.029772319 0.106592335
-0.17212412 -0.0873938 0.19065833 -0.04160149 0.064434 -0.060269017 -0.029457247 0.08079774
-0.0321374 0.16131222 -0.06810339 -0.055844016 -0.054686133 -0.16504604 -0.0365649 -0.110838726
-0.14900818 0.10488565 0.2908245 -0.019169161 -0.13351913 -0.03605321 0.03428027 -0.22923723
-0.12996806 -0.06031702 -0.014074672 0.020063298 0.113150455 0.117900826 0.08113779 0.06619941
-0.07475651 -0.057771355 -0.030072486 -0.28561464 -0.22646144 -0.058251873 -0.02122149 0.016849311
-0.11365714 0.04158625 0.108742684 0.09450397 0.028668422 -0.010670347 0.027256481 0.04769307
0.0863976 0.118381225 0.16915195 0.08603116 0.08743557 0.13059163 0.1480888 0.00801838
-0.17874022 0.0008507743 -0.047045697 0.0140353255 0.0021229978 -0.04549813 0.19972678 0.06694712
-0.032559607 0.07118972 -0.01597398 0.037405472 0.07612537 0.09078351 -0.12540086 -0.25321883
0.125716 0.04790757 0.09785016 0.023036228 0.17797296 0.06945048 0.20167968 0.026591279
0.07442498 -0.061418626 -0.08937037 0.020854926 -0.15822001 0.027881345 -0.23919213 0.2229241
-0.024258219 -0.20356385 0.06272272 -0.038555704 0.06296048 0.0051246593 0.06982794 0.011812033
-0.012205053 -0.07156379 0.028534917 0.07712453 -0.09978311 0.08916047 -0.0004487533 0.039420336
0.09758376 -0.11469595 -0.02657424 -0.011391982 0.17359786 -0.026310312 -0.07160447 0.14974424
-0.039484397 0.25137576 -0.016501741 -0.048628297 -0.0494301 -0.035701208 -0.03925297 0.24564722
-0.043673377 0.04918143 -0.08854961 -0.18261419 -0.06843017 -0.04890352 -0.05170631 -0.05873614
0.063294135 -0.032988437 -0.2802596 0.047033593 -0.0630066 -0.05368597 0.023649987 -0.0048666853
0.17401965 -0.17552954 -0.02399713 0.065202765 0.029730586 0.093790084 0.048640307 -0.00870584
-0.074674286 -0.05972264 -0.22128636 -0.04025799 -0.010784499 -0.23600554 0.12557253 -0.08200191
0.20185603 -0.05520392 -0.07503329 -0.07000442 0.12262404 -0.3120957 -0.14551395 0.032477967
-0.0731954 -0.0045151673 0.11607478 -0.08708088 -0.002940524 -0.004367336 -0.055741273 0.06778152
0.11455385 -0.09805996 0.14462598 -0.11373055 0.12561646 -0.10733303 -0.029455064 0.020081494
0.123752505 -0.15632153 0.040339913 -0.06398864 -0.05954809 0.0960026 0.02629568 0.11270715
-0.04767827 0.07934362 0.1179729 0.026650429 -0.0034908764 0.01239872 -0.021010403 -0.14033924
00000000: a282 2f3d 09f2 403e 7772 e8bb d805 2b3e
00000010: fda1 85bd d008 853c 4088 a6bd 498a 743e
00000020: ddd9 80be 2134 dfbd ea00 ed3b 370f bf3d
00000030: f108 b1bc 975b 813d 9c4d ee3d b0d3 333e
00000040: 9050 f63c ae3e 063e d2e2 f93c 112c fcbd
00000050: 4cb3 85bc 292b 4ebd ba01 313e 3ed2 39be
00000060: 5bd8 a23d bfa6 c73d b7f7 05be 0c3b 6d3d
00000070: 8fa2 3cbe c35c 6d3d 6bc1 6b3d 68be 51bc
00000080: b378 763d 5b7e 63be 9181 d43c 887b 3cbe
00000090: 74cc 38be d08f c33d 6dfa b43d f945 6e3d
000000a0: e248 423d aa94 f9bd b541 8e3b 3674 8abd
000000b0: c6cb a6bd 0fa5 603c 1d70 66bd 14c0 053e
000000c0: a6a3 55be de72 693d e8d8 f73c 725e 263b
000000d0: 8eb6 2e3e 58af 1c3c b734 2dbc bfeb 0ebd
000000e0: 1609 ad3d d751 75be 2217 f13c 158f 7a3d
000000f0: 80a6 5abd f382 48bd 14e5 f3bc 154d da3d
00000100: 4e41 30be 85fb b2bd f03b 433e 5366 2abd
00000110: f9f5 833d a5dc 76bd 5350 f1bc 4979 a53d
00000120: 82a2 03bd 082f 253e ca79 8bbd b2bc 64bd
00000130: 91fe 5fbd d401 29be 14c5 15bd 6aff e2bd
00000140: 9a95 18be 4ace d63d f3e6 943e a508 9dbc
00000150: 3db9 08be 88ac 13bd 7869 0c3d 2abd 6abe
00000160: 5916 05be fb0e 77bd 7499 66bc c95b a43c
00000170: 6dbb e73d fd75 f13d 922b a63d 8e93 873d
00000180: f119 99bd a8a1 6cbd 935a f6bc 153c 92be
00000190: 82e5 67be 8499 6ebd b1d8 adbc 9107 8a3c
000001a0: 13c5 e8bd 5856 2a3d 7cb4 de3d 4c8b c13d
000001b0: 0ada ea3c aed2 2ebc fc48 df3c cf59 433d
000001c0: 3af1 b03d db71 f23d 2b36 2d3e 1b31 b03d
000001d0: 6c11 b33d d0b9 053e 97a4 173e 865f 033c
000001e0: ad07 37be 7f06 5f3a fdb2 40bd 6cf4 653c
000001f0: fe21 0b3b 3f5c 3abd 2d85 4c3e 921b 893d
00000200: 395d 05bd eacb 913d dddb 82bc 7b36 193d
00000210: 9ee7 9b3d b4ec b93d 1569 00be e6a5 81be
00000220: b2bb 003e ba3a 443d aa65 c83d 79b6 bc3c
00000230: 8b3e 363e 0e3c 8e3d 1e85 4e3e f4d5 d93c
00000240: 206c 983d 1992 7bbd d007 b7bd f3d7 aa3c
00000250: 6d04 22be 6b67 e43c c8ee 74be 3746 643e
00000260: 2cb9 c6bc 0b73 50be c574 803d 96ec 1dbd
00000270: 6df1 803d c2ec a73b f301 8f3d 4287 413c
00000280: b4f7 47bc 0990 92bd 0fc2 e93c 77f3 9d3d
00000290: 165b ccbd c499 b63d a646 ebb9 3877 213d
000002a0: ffd9 c73d b6e5 eabd 38b2 d9bc 70a5 3abc
000002b0: a3c3 313e b988 d7bc 5da5 92bd 8e56 193e
000002c0: 64ba 21bd 53b4 803e a92e 87bc 772e 47bd
000002d0: 3777 4abd 6e3b 12bd b9c7 20bd f28a 7b3e
000002e0: dbe2 32bd 7872 493d 7f59 b5bd 37ff 3abe
000002f0: 1e25 8cbd 0f4f 48bd ffc9 53bd 4f95 70bd
00000300: 5ba0 813d e21e 07bd 307e 8fbe 4ca6 403d
00000310: 9b09 81bd d2e5 5bbd 9ebd c13c b778 9fbb
00000320: 3532 323e 04be 33be a195 c4bc 0789 853d
00000330: 8f8d f33c 0415 c03d 0f3b 473d f1a2 0ebc
00000340: d5ee 98bd ba9f 74bd e498 62be 90e5 24bd
00000350: 78b1 30bc 70ab 71be 1696 003e 9ef0 a7bd
00000360: 59b3 4e3e 811d 62bd 0eab 99bd 7a5e 8fbd
00000370: 5022 fb3d 02cb 9fbe 9c01 15be 9e07 053d
00000380: 78e7 95bd f8f3 93bb 9db8 ed3d 7657 b2bd
00000390: ceb5 40bb df1b 8fbb f650 64bd 0ad1 8a3d
000003a0: 359b ea3d a9d3 c8bd d518 143e 90eb e8bd
000003b0: 9aa1 003e 6bd1 dbbd bf4b f1bc f281 a43c
000003c0: f471 fd3d c012 20be 773b 253d 7a0c 83bd
000003d0: b3e8 73bd 039d c43d 0a6a d73c 02d3 e63d
000003e0: 4a4a 43bd e87e a23d c79b f13d 0052 da3c
000003f0: 30c7 64bb 0024 4b3c 021e acbc 17b5 0fbe

fc_mu.bias f4 [7]
-0.11043748 0.3652696 -0.24476357 -0.19713576 -0.19221584 0.009260707 -0.30142468
00000000: 0c2d e2bd 9e04 bb3e 4da3 7abe f5dd 49be
00000010: 3bd4 44be 38ba 173c 5654 9abe

fc_std.weight f4 [7, 128]
-0.034476653 0.022162061 0.02334514 0.0344836 0.0033107 -0.028981505 -0.041700996 0.047033817
0.009892 0.10437007 0.021308217 0.06733101 -0.06233366 -0.06374122 0.006554793 -0.012442877
-0.007321335 0.14904688 -0.020647608 0.0738594 -0.027892355 0.07299335 -0.022803249 0.07759535
-0.029312959 0.082072444 0.031250153 0.11578996 -0.034927733 -0.039266996 0.001109595 -0.1116065
-0.06391026 0.055742864 -0.08756564 0.1556934 0.011336293 0.010239057 0.027458068 -0.0070653134
-0.09788999 0.040248618 0.12566754 -0.060276777 -0.07819099 0.014070871 -0.027379893 0.0064700316
0.14086296 0.044336304 0.015165981 -0.026251338 0.19215617 -0.06238531 -0.007979223 0.018254152
0.10591682 0.13014765 -0.023621958 -0.07765601 -0.0014502036 0.028323948 -0.014693143 -0.05326155
0.16477342 0.04927629 0.07562289 -0.0028419695 -0.059901256 -0.029284148 -0.027555538 0.043067716
-0.063923486 -0.08725519 0.019106101 -0.10447253 0.025216272 0.019057943 -0.03143303 0.06697475
0.11001813 0.024070479 0.122686505 -0.046945192 0.12864473 -0.09420091 -0.07964883 0.09287021
-0.016872412 -0.02115888 -0.03736273 -0.0036390284 0.059147626 -0.16071586 -0.06337167 0.08615887
0.06342672 0.06637712 0.09970898 0.07611461 0.14335664 0.014717254 0.024670772 -0.0030718856
0.044475723 -0.04216845 0.08097268 0.06419199 0.025093436 -0.018672932 0.061275803 -0.046294484
0.002536129 0.022553647 -0.018791633 -0.018995725 0.08040508 0.038623 0.10045276 0.0682142
0.091068774 -0.0038014578 0.052082557 0.016165912 0.013786144 -0.03343528 -0.013415581 -0.04392971
0.036288656 -0.016076207 -0.010787657 0.016354986 0.060992166 0.054127194 -0.089660086 -0.13389741
0.051713593 0.06853055 0.07159982 0.07229414 0.051166635 0.04553812 0.078487664 0.0018178833
0.04859862 0.0030237043 -0.02182629 0.03851827 -0.09388485 -0.010453051 0.1008448 0.07564158
0.036450543 0.13150102 -0.05264109 0.051470045 0.063170046 -0.035047475 0.023712823 0.003289318
-0.11050322 -0.06812202 0.012612354 -0.0098805195 -0.030902278 0.04613789 -0.043712016 0.08316134
-0.010007625 0.035456393 0.12807669 0.073824696 0.1747428 -0.013353218 -0.13845688 0.026839226
-0.03850025 0.17202553 0.03795236 0.04423465 -0.00089593994 -0.053750534 -0.05712881 0.16258018
0.032057524 0.004363683 -0.04198563 0.056620225 -0.03841663 0.00037717848 -0.018189283 -0.06976165
0.046967324 -0.03159041 0.18827954 0.026491914 -0.031315297 -0.10244531 0.07971338 0.03524465
0.2109149 -0.06568641 -0.07180111 0.053305887 0.020883778 0.08416882 0.11125949 -0.01776603
-0.067058735 -0.031183006 -0.0015076197 -0.05307911 0.04458902 0.03628631 0.067905284 -0.12118299
0.062126666 -0.02751234 -0.020760627 -0.06900303 0.11995986 -0.092566356 -0.10421355 0.039312113
0.09502093 -0.029283904 0.062038682 -0.089335755 0.07236039 -0.04064095 -0.069181226 0.04255547
0.07087995 -0.028342385 0.088043384 0.025730893 0.17718226 0.08798261 -0.008955729 -0.040285274
0.06843168 -0.029565267 -0.036107417 -0.018825952 -0.0052740127 0.16050842 0.025503343 0.09083588
-0.07094276 0.085675396 0.05337771 0.0024041913 -0.015697723 -0.013002171 -0.14197317 -0.04654468
00000000: 6437 0dbd 368d b53c 4f3e bf3c ad3e 0d3d
00000010: 54f8 583b 9f6a edbc aace 2abd 88a6 403d
00000020: 0e12 223c fabf d53d 928e ae3c d7e4 893d
00000030: 9451 7fbd c28a 82bd 97c9 d63b 35dd 4bbc
00000040: cfe7 efbb bf9f 183e 2c25 a9bc 9943 973d
00000050: 827e e4bc 8a7d 953d e1cd babc 50ea 9e3d
00000060: bb21 f0bc 9915 a83d 2900 003d 4923 ed3d
00000070: 6210 0fbd 6ed6 20bd d46f 913a f391 e4bd
00000080: 62e3 82bd a152 643d 9d55 b3bd 176e 1f3e
00000090: dcbb 393c b8c1 273c beef e03c 2584 e7bb
000000a0: 8c7a c8bd bcdb 243d feae 003e c8e4 76bd
000000b0: 9922 a0bd 8389 663c cc4b e0bc 8f02 d43b
000000c0: 613e 103e fc99 353d bc7a 783c 0c0d d7bc
000000d0: 96c4 443e bd87 7fbd 49bb 02bc bb89 953c
000000e0: ebea d83d 6d45 053e d682 c1bc 1d0a 9fbd
000000f0: c214 beba a007 e83c 82bb 70bc c828 5abd
00000100: 5dba 283e efd5 493d 2ce0 9a3d 5640 3abb
00000110: 055b 75bd 4fe5 efbc 27bc e1bc c667 303d
00000120: 51ea 82bd d9b2 b2bd 6684 9c3c b2f5 d5bd
00000130: 5b92 ce3c 671f 9c3c ecbf 00bd 0f2a 893d
00000140: 2f51 e13d 742f c53c 1043 fb3d 9a49 40bd
00000150: 72bb 033e 68ec c0bd ed1e a3bd bd32 be3d
00000160: 0338 8abc 6355 adbc a909 19bd c47c 6ebb
00000170: c844 723d b392 24be 02c9 81bd 1074 b03d
00000180: dee5 813d baf0 873d 3934 cc3d fae1 9b3d
00000190: 15cc 123e a320 713c 5c1a ca3c b051 49bb
000001a0: 2d2c 363d d3b8 2cbd 01d5 a53d 1777 833d
000001b0: c090 cd3c faf7 98bc 56fc 7a3d 499f 3dbd
000001c0: 2f35 263b 6dc2 b83c e9f0 99bc ec9c 9bbc
000001d0: 6bab a43d 2733 1e3d 2dba cd3d e3b3 8b3d
000001e0: 4482 ba3d e121 79bb 8554 553d 606e 843c
000001f0: 47df 613c 6ff3 08bd 06cd 5bbc a4ef 33bd
00000200: 6aa3 143d 40b2 83bc b7be 30bc e4fa 853c
00000210: ecd2 793d 7ab4 5d3d b59f b7bd 671c 09be
00000220: a2d1 533d bf59 8c3d eda2 923d f30e 943d
00000230: 1b94 513d 2e86 3a3d 24be a03d 0b46 ee3a
00000240: 590f 473d 5729 463b 0ccd b2bc 55c5 1d3d
00000250: b346 c0bd 4643 2bbc b887 ce3d f9e9 9a3d
00000260: 2a4d 153d 34a8 063e 2f9e 57bd 41d2 523d
00000270: 4c5f 813d f18d 0fbd 6541 c23c 9991 573b
00000280: 834f e2bd 8f83 8bbd 0ca4 4e3c e7e1 21bc
00000290: c626 fdbc 16fb 3c3d 5f0b 33bd 7e50 aa3d
000002a0: 06f7 23bc b93a 113d 8926 033e 6731 973d
000002b0: c7ef 323e 75c7 5abc a4c7 0dbe f0dd db3c
000002c0: 70b2 1dbd 7627 303e ef73 1b3d 642f 353d
000002d0: 83dd 6aba 8529 5cbd e6ff 69bd 6b7b 263e
000002e0: c04e 033d 3afd 8e3b 20f9 2bbd 9cea 673d
000002f0: c25a 1dbd 0ac0 c539 b101 95bc 32df 8ebd
00000300: cf60 403d f264 01bd 5acc 403e 9205 d93c
00000310: 7844 00bd d9ce d1bd c540 a33d b25c 103d
00000320: 13fa 573e 9986 86bd 760c 93bd 4657 5a3d
00000330: 7514 ab3c b460 ac3d 04dc e33d 118a 91bc
00000340: 1756 89bd 8173 ffbc 539b c5ba 7b69 59bd
00000350: faa2 363d f4a0 143d ed11 8b3d ca2e f8bd
00000360: 8878 7e3d 8f61 e1bc 3112 aabc 7651 8dbd
00000370: 84ad f53d 6e93 bdbd ea6d d5bd bd05 213d
00000380: 559a c23d cce4 efbc 461c 7e3d aaf5 b6bd
00000390: af31 943d 2077 26bd e3ae 8dbd a54e 2e3d
000003a0: 8229 913d 4a2e e8bc 1750 b43d 98c9 d23c
000003b0: 446f 353e 3a30 b43d 0dbb 12bc 2c02 25bd
000003c0: e925 8c3d dc32 f2bc 5fe5 13bd e238 9abc
000003d0: a0d1 acbb 525c 243e 63ec d03c 2908 ba3d
000003e0: 704a 91bd 9576 af3d 96a2 5a3d a38f 1d3b
000003f0: 8398 80bc 0f07 55bc 6a61 11be a2a5 3ebd

fc_std.bias f4 [7]
-0.50830424 -0.6805956 -0.38871258 -0.88830376 -0.7704905 -1.2897636 -0.3690696
00000000: 3a20 02bf 833b 2ebf 5605 c7be e067 63bf
00000010: de3e 45bf f916 a5bf b1f6 bcbe

fc1.weight f4 [128, 16]
1.0121657 -0.34434092 0.7687337 0.07303549 0.34649777 -0.12118541 1.4872808 -0.50292367
0.027367549 0.40632597 -0.12229464 0.46701714 -0.17438215 -0.013679651 0.08356032 -0.032584857
-0.16894063 -0.017606504 0.2589829 -0.07822586 -0.2255304 0.09456418 0.562276 -1.0995383
0.16365859 -0.13419817 -0.25040442 -0.00049582415 -0.015125627 0.13699605 0.014845539 0.18717983
-0.38559598 0.047242273 -0.07586868 -0.06614822 -0.082849294 0.027572433 -0.35886005 1.256876
0.27751243 0.39216205 0.007235773 0.0026232197 -0.05239447 -0.03277359 -0.04768855 0.22274166
0.3716512 0.8791933 0.2725921 -0.044591103 0.21044274 -0.038909283 -0.27660528 -1.274845
-0.3878241 -1.2549197e-05 0.029689716 0.06834955 0.054781113 -0.10525918 -0.029260414 0.038679626
-0.2898218 0.38044393 0.07244454 -0.039426923 -0.021003427 -0.12634748 0.19229662 -0.10594088
1.2137764 -0.12867701 0.14270912 -0.14067294 -0.045373786 -0.020677729 0.015358235 -0.25432202
-0.22607778 -0.6445629 0.12466238 0.026977679 0.09334565 -0.027533904 1.3593632 -0.2702839
-1.3450818 -0.31084624 -0.043331888 -0.047447663 -0.035504486 -0.094674945 -0.09033189 -0.047464393
0.2615207 0.65838933 -0.18543138 0.16719842 -0.3828412 0.3449149 1.4104444 0.23685485
-0.6755411 -0.20691213 0.27509993 -0.33765233 0.15817255 -0.21520235 -0.23066978 -0.036693484
0.3209053 -0.19282766 0.32982618 0.10167258 -0.44749016 0.14484848 0.60266036 1.3464532
0.0859978 0.14172208 0.07292236 0.12402455 -0.010172149 0.11499248 0.091788866 -0.3008358
0.4662859 -0.25071093 -0.8962285 0.014550127 0.03676782 0.011668794 -0.28570092 -0.35086492
1.8446062 0.12605114 0.006024575 -0.31409025 -0.17324015 -0.15755542 -0.15327016 0.36109546
0.011615298 -0.12790857 0.22575866 0.04920442 0.009436556 -0.11606678 0.30653372 0.8522904
0.41722807 -0.63335234 -0.3067361 0.06876748 -0.088053815 -0.039171416 0.21962164 0.20282345
-0.11041368 0.43462935 0.46906233 -0.017868565 -0.29289848 -0.027480712 -0.80561846 -1.290763
-0.30005637 0.08732949 -0.12196246 0.02807495 -0.044321842 0.013887846 0.034773782 -0.13068134
-0.86532927 -0.5103208 0.33893088 -0.02459336 0.11743155 -0.06932732 1.8654885 1.195669
0.5612413 0.14728586 -0.1341642 -0.027057419 0.052226532 -0.07754516 0.0026440287 0.037988562
-0.017533094 -0.07190038 0.3318782 0.0007316428 0.07994811 -0.09529557 -0.34901538 -1.3220966
-0.20729375 0.27126592 0.20768233 -0.22427385 0.02187486 -0.19247036 0.01979565 0.13396631
0.03198738 -0.42992532 0.5344437 0.06256076 -0.30064154 0.12910993 1.0958769 -1.0829972
0.16096298 -0.35854897 -0.05485638 -0.58185124 0.07073393 -0.13696097 -0.14403759 -0.01590554
0.34705618 0.21904173 0.516985 0.00073209894 0.2304629 -0.30157432 0.79862434 -1.0623795
0.03995906 0.31039208 0.12765956 -0.058304407 -0.10898003 -0.23200522 -0.17086639 -0.018853502
-0.074802406 -0.102799796 0.20801288 -0.030128168 -0.022336718 -0.015173562 -1.2815672 0.97924536
0.30865425 0.19127493 0.16613738 0.053634092 -0.0011418213 -0.07340187 -0.003596142 0.037275042
00000000: a58e 813f 744d b0be bbcb 443f a293 953d
00000010: 2868 b13e 0e30 f8bd 385f be3f 9bbf 00bf
00000020: e931 e03c f509 d03e 9d75 fabd df1c ef3e
00000030: 3c91 32be 9d20 60bc ac21 ab3d b377 05bd
00000040: c6fe 2cbe 843b 90bc 6899 843e e134 a0bd
00000050: 71f1 66be ddaa c13d 52f1 0f3f acbd 8cbf
00000060: 1e96 273e 3f6b 09be 0235 80be 32fa 01ba
00000070: 7ad1 77bc b148 0c3e b43a 733c 12ac 3f3e
00000080: d66c c5be 1d81 413d 0a61 9bbd b878 87bd
00000090: e4ac a9bd 95df e13c 81bc b7be 50e1 a03f
000000a0: 1c16 8e3e 77c9 c83e 101a ed3b 53ea 2b3b
000000b0: 959b 56bd 9a3d 06bd 1255 43bd 6416 643e
000000c0: 1149 be3e d012 613f 3191 8b3e 29a5 36bd
000000d0: 4d7e 573e 575f 1fbd 359f 8dbe 1f2e a3bf
000000e0: e190 c6be 648a 52b7 d937 f33c d9fa 8b3d
000000f0: 2962 603d 2092 d7bd 89b3 efbc 876e 1e3d
00000100: 8663 94be 8cc9 c23e ce5d 943d 207e 21bd
00000110: 610f acbc 3c61 01be 68e9 443e 88f7 d8bd
00000120: 065d 9b3f e8c3 03be 5722 123e 910c 10be
00000130: ddd9 39bd 5764 a9bc 1ba1 7b3c 7f36 82be
00000140: ef80 67be 1302 25bf fd4e ff3d 4b00 dd3c
00000150: 012c bf3d c88e e1bc 9dff ad3f a762 8abe
00000160: a42b acbf 3d27 9fbe c77c 31bd 7b58 42bd
00000170: 276d 11bd f0e4 c1bd edff b8bd 066a 42bd
00000180: 0be6 853e 348c 283f b9e1 3dbe 1036 2b3e
00000190: c303 c4be b098 b03e 7189 b43f 148a 723e
000001a0: 43f0 2cbf c6e0 53be e6d9 8c3e c4e0 acbe
000001b0: fcf7 213e 015e 5cbe b334 6cbe e84b 16bd
000001c0: b34d a43e 9d74 45be fade a83e b739 d03d
000001d0: 6e1d e5be 2953 143e f347 1a3f 9458 ac3f
000001e0: 9d1f b03d 981f 113e 5158 953d 9500 fe3d
000001f0: 16a9 26bc 2d81 eb3d cdfb bb3d 2607 9abe
00000200: 07bd ee3e 2f5d 80be 3b6f 65bf a863 6e3c
00000210: db99 163d 782e 3f3c 6447 92be 91a4 b3be
00000220: 0e1c ec3f 8d13 013e cc69 c53b 70d0 a0be
00000230: de65 31be 3556 21be daf2 1cbe 81e1 b83e
00000240: 174e 3e3c 77fa 02be 472d 673e 938a 493d
00000250: c99b 1a3c 6cb4 edbd fdf1 9c3e b42f 5a3f
00000260: eb9e d53e 6123 22bf 840c 9dbe f7d5 8c3d
00000270: 8f55 b4bd 3572 20bd 7fe4 603e f3b0 4f3e
00000280: 9120 e2bd bd87 de3e f028 f03e 1961 92bc
00000290: caf6 95be 3b1f e1bc 033d 4ebf b937 a5bf
000002a0: fda0 99be ced9 b23d 74c7 f9bd 70fd e53c
000002b0: d28a 35bd d989 633c f46e 0e3d 54d1 05be
000002c0: 3886 5dbf 62a4 02bf 5988 ad3e 0478 c9bc
000002d0: f47f f03d 7bfb 8dbd 54c8 ee3f af0b 993f
000002e0: 83ad 0f3f 1bd2 163e 5762 09be 85a7 ddbc
000002f0: 7deb 553d ffcf 9ebd 7147 2d3b e599 1b3d
00000300: 90a1 8fbc 8240 93bd f0eb a93e b8cb 3f3a
00000310: d6bb a33d 532a c3bd 25b2 b2be 763a a9bf
00000320: d044 54be 5ee3 8a3e adaa 543e 0ba8 65be
00000330: e832 b33c f316 45be 7d2a a23c 772e 093e
00000340: 3305 033d 2c1f dcbe 4dd1 083f db1f 803d
00000350: b0ed 99be 6535 043e b245 8c3f a79f 8abf
00000360: 7bd3 243e bb93 b7be 15b1 60bd 34f4 14bf
00000370: f3dc 903d 7f3f 0cbe 977e 13be 564c 82bc
00000380: 59b1 b13e 7a4c 603e 2159 043f 54ea 3f3a
00000390: 77fe 6b3e f367 9abe a572 4c3f 0dfc 87bf
000003a0: 1cac 233d b6eb 9e3e 30b9 023e 9ad0 6ebd
000003b0: ec30 dfbd c792 6dbe 99f7 2ebe a972 9abc
000003c0: 0132 99bd b388 d2bd 5401 553e 59cf f6bc
000003d0: 7efb b6bc 889a 78bc 650a a4bf d3af 7a3f
000003e0: ee07 9e3e 93dd 433e eb1f 2a3e 6caf 5b3d
000003f0: 2aa9 95ba b853 96bd 40ad 6bbb b7ad 183d

fc1.bias f4 [128]
0.5866875 0.83875537 -0.5201021 0.209487 -0.9182252 1.0057071 -0.44237834 -0.12741524
-0.46732533 -0.88507384 0.49518698 -0.16458961 0.62318915 0.5791806 -0.17336151 -0.6021618
-0.7676097 0.55774385 1.0914814 -0.7305954 -0.8031903 0.68247753 -0.70157546 -0.49574903
-0.5248998 0.68929315 0.09256325 -0.4638069 0.92327744 0.7652049 0.5926188 -0.58076847
-0.23738888 0.29081854 0.3193712 -1.0403959 -0.30406514 -0.75820875 0.31190646 0.48406768
1.1666152 -0.5345456 0.74022543 0.24223213 -0.7211515 0.10142461 0.8734238 -0.88905966
-0.010768115 0.9473178 0.3441116 -1.5407058 0.056556575 0.11830915 0.17063366 -0.87797165
0.51378876 -0.5933136 -0.4948038 -0.560378 1.1539769 0.8135461 0.009814296 -0.05755928
-0.72102803 0.79400045 -0.7546542 0.5950521 -0.40721703 1.2033374 -1.1766058 -0.56269443
0.8492055 0.1501377 0.11853552 0.9914548 -0.9078967 -1.2191877 -0.42710587 0.36300126
0.12890427 0.31270146 -0.6036248 1.1165233 -0.2252619 0.12499913 -0.6220043 -0.052574128
0.3014866 0.8362877 -0.7036118 -0.23979391 0.7136856 0.6091749 0.9089933 -0.51921993
0.7231801 -0.2770467 0.8898673 0.82900727 0.11377899 -0.27409628 -0.46537343 0.9378534
0.30477634 0.8490413 0.16605721 0.6460191 0.5781461 -0.7676286 -0.74035746 -0.70286095
-0.79896253 0.6369624 -0.1948673 0.8390124 -0.9136248 0.39172894 0.19188333 -0.6436392
-0.73628646 0.76834947 0.7777023 -0.77374095 -0.39861593 -0.6714241 -0.3257761 -0.67364746
00000000: 2731 163f acb8 563f 6925 05bf c383 563e
00000010: cf10 6bbf 03bb 803f 6a7f e2be 2479 02be
00000020: 4445 efbe 3394 62bf 2689 fd3e 2e8a 28be
00000030: 5389 1f3f 2e45 143f ae85 31be 4727 1abf
00000040: 1282 44bf 4dc8 0e3f aab5 8b3f 4d08 3bbf
00000050: e19d 4dbf d9b6 2e3f 739a 33bf d1d2 fdbe
00000060: d55f 06bf 8475 303f cd91 bd3d 1978 edbe
00000070: e95b 6c3f 78e4 433f deb5 173f 3ead 14bf
00000080: 1216 73be 2be6 943e 9f84 a33e b12b 85bf
00000090: 6dae 9bbe f819 42bf 34b2 9f3e b8d7 f73e
000000a0: a653 953f fbd7 08bf 6a7f 3d3f b30b 783e
000000b0: 629d 38bf b5b7 cf3d b498 5f3f 6a99 63bf
000000c0: bf6c 30bc 6b83 723f 652f b03e d935 c5bf
000000d0: dea7 673d 114c f23d 97ba 2e3e c0c2 60bf
000000e0: a987 033f 66e3 17bf ec56 fdbe ef74 0fbf
000000f0: 84b5 933f 8f44 503f 24cc 203c 48c3 6bbd
00000100: 4b95 38bf 9d43 4b3f 0531 41bf 5655 183f
00000110: c07e d0be f606 9a3f 059b 96bf be0c 10bf
00000120: 8865 593f b2bd 193e c0c2 f23d fbcf 7d3f
00000130: eb6b 68bf 580e 9cbf 9fad dabe 4ddb b93e
00000140: 7bff 033e 681a a03e 2887 1abf 3cea 8e3f
00000150: 0eab 66be 8bff ff3d ac3b 1fbf f857 57bd
00000160: 745c 9a3e f316 563f e71f 34bf 898c 75be
00000170: 19b4 363f e3f2 1b3f c9b3 683f 99eb 04bf
00000180: 5522 393f 11d9 8dbe 58ce 633f d239 543f
00000190: f604 e93d 5956 8cbe 6d45 eebe 2917 703f
000001a0: a50b 9c3e c55a 593f e70a 2a3e 8261 253f
000001b0: 6201 143f 4f83 44bf 1188 3dbf b2ee 33bf
000001c0: cf88 4cbf f80f 233f 4b8b 47be 84c9 563f
000001d0: 51e3 69bf b290 c83e 107d 443e 8ac5 24bf
000001e0: 457d 3cbf 8db2 443f 7f17 473f e313 46bf
000001f0: 6317 ccbe 73e2 2bbf 20cc a6be 2974 2cbf
